depth/checkpoints/view_0.pt (torch, 58435 bytes, 15 tensors)

net.0.weight f4 [64, 1]
0.8887854 0.18735582 -0.3594054 0.38139516 -0.028156055 0.61848986 -0.9011668 0.3241709
-0.362965 0.16870995 -0.042988658 -0.28048187 -0.6327721 0.6476326 -0.9912095 0.2730689
0.8310665 -0.6431304 0.66249615 0.17998007 -0.7739881 0.344145 -0.69822925 -0.9461721
0.54407144 -0.4964813 -0.8757025 0.17371248 -0.5315341 0.15938258 0.5006531 0.7624529
0.022628054 -0.40698987 0.82111967 0.3213396 0.6047351 -0.33983633 0.4764266 0.2299031
0.012603123 -0.8179438 -0.5643297 -0.15274572 0.02252542 -0.63991654 0.51258224 0.39214662
0.42376497 0.8690729 0.18181348 -0.9107994 -0.42137837 0.09115608 -0.51502514 -0.012735724
-0.881485 0.3360279 0.9024646 0.5750478 -0.8554491 -0.23570468 0.9044492 0.31113136
00000000: 7187 633f 34da 3f3e fc03 b8be 3a46 c33e
00000010: 87a7 e6bc 5a55 1e3f deb2 66bf baf9 a53e
00000020: 8cd6 b9be 4dc2 2c3e e014 30bd 529b 8fbe
00000030: 5afd 21bf 40cb 253f e8bf 7dbf b0cf 8b3e
00000040: c6c0 543f 32a4 24bf 5999 293f b24c 383e
00000050: 1624 46bf c633 b03e 27bf 32bf 5638 72bf
00000060: 4448 0b3f cc32 febe 0a2e 60bf afe1 313e
00000070: 9e12 08bf 3035 233e cd2a 003f 1d30 433f
00000080: 785e b93c fa60 d0be e634 523f a086 a43e
00000090: ebcf 1a3f 07ff adbe 30ee f33e b86b 6b3e
000000a0: 547d 4e3c c464 51bf e977 10bf 6069 1cbe
000000b0: 3b87 b83c 92d1 23bf 9738 033f 71c7 c83e
000000c0: b9f7 d83e 907b 5e3f 502d 3a3e 262a 69bf
000000d0: e8be d7be 0ab0 ba3d b0d8 03bf 80a9 50bc
000000e0: 00a9 61bf d90b ac3e ec07 673f 5536 133f
000000f0: b6fe 5abf 915c 71be fc89 673f 9c4c 9f3e

net.0.bias f4 [64]
-0.9259439 0.8026574 -0.8048723 -0.5464343 0.35626438 -0.5259087 -0.3922311 -0.045124393
-0.44932568 0.9020782 -0.17645955 0.9008395 -0.5859269 0.4494387 0.1172359 -0.14965916
0.010377281 -0.48729038 -0.43183812 0.9528676 -0.34755337 0.60009 0.9487065 0.87734234
0.17703807 -0.9899417 0.26809037 0.4796399 -0.77870286 -0.3348298 -0.5613434 0.34371796
-0.0070297066 0.52267724 -0.52986777 -0.042695206 0.05165078 0.9055919 -0.9658952 -0.5994321
0.08701552 0.75827885 0.73891836 0.16412067 0.5717732 0.59357285 0.9383037 0.27601522
0.40132457 0.5050108 -0.29319322 -0.48919606 0.16228747 0.7864548 0.11456549 -0.16599572
-0.5901283 0.6142271 -0.9560529 0.52071756 0.43756664 0.57956654 -0.067870006 -0.70788145
00000000: a90a 6dbf f57a 4d3f 1c0c 4ebf 1ee3 0bbf
00000010: 4968 b63e f4a1 06bf 84d2 c8be 5bd4 38bd
00000020: 040e e6be 99ee 663f d0b1 34be 6b9d 663f
00000030: 4eff 15bf d41c e63e 6019 f03d 4040 19be
00000040: 7905 2a3c 207e f9be e319 ddbe 22ef 733f
00000050: 84f2 b1be 809f 193f 6ede 723f 8299 603f
00000060: 7849 353e d26c 7dbf 2443 893e 5c93 f53e
00000070: 1259 47bf d06e abbe 33b4 0fbf cdfb af3e
00000080: 7459 e6bb 2dce 053f 6aa5 07bf 2be1 2ebd
00000090: c58f 533d dfd4 673f e844 77bf 6274 19bf
000000a0: 3135 b23d 901e 423f c129 3d3f 400f 283e
000000b0: ba5f 123f 64f4 173f ac34 703f de51 8d3e
000000c0: 6a7a cd3e 6348 013f 6c1d 96be e877 fabe
000000d0: b02e 263e 1a55 493f 50a1 ea3d c8fa 29be
000000e0: a612 17bf fd3d 1d3f e2bf 74bf bf4d 053f
000000f0: bc08 e03e 795e 143f 6eff 8abd b837 35bf

net.2.weight f4 [64, 64]
-0.0029740334 0.051068038 0.08485559 -0.07125522 -0.05584763 0.0861506 -0.00680767 0.08485015
0.083233 -0.10936394 0.11144571 -0.033498287 -0.05859986 -0.03304109 0.11513035 -0.11973089
-0.017575666 -0.07898104 0.11289626 -0.109751254 0.12489568 0.11052869 -0.036566526 -0.082408294
-0.041379094 0.037501037 -0.045951948 -0.089875296 0.117493555 -0.07396202 0.055091247 -0.09760475
-0.060138136 -0.11502278 0.116166174 -0.0027105212 0.090785965 -0.038255244 0.037369832 0.11631575
-0.038392976 -0.024653181 0.10380508 -0.112177595 0.028335854 0.050764874 -0.060914665 -0.08798562
0.0682811 0.02677989 -0.029636249 -0.09845261 0.09448154 -0.12383138 0.04555942 0.07421099
0.0020203143 0.025206119 0.1058729 -0.08486423 -0.08829746 0.02460052 0.050656363 0.009052664
0.0008151913 -0.07136885 -0.10688403 -0.06683114 0.073811546 -0.14706905 0.01967524 0.06069357
0.037589535 0.058455516 0.04946713 0.06588314 -0.09479162 -0.12585805 -0.053353876 -0.056956965
-0.046439607 0.11003983 -0.089120954 0.08347549 -0.06709592 0.023096403 -0.023509433 -0.078966565
0.106061555 0.10179995 0.07396826 -0.049790215 -0.040892243 0.113921344 -0.04762302 -0.04010444
0.07946981 0.11049597 -0.16351652 -0.060260043 0.00906045 0.097435325 -0.07982987 0.021597102
-0.12318133 0.01888614 0.07140286 0.13339457 -0.0640112 -0.0532489 -0.027947254 0.11430986
-0.120006755 0.09199905 -0.11815551 0.011987358 0.019607797 -0.02212736 0.009647071 -0.06806229
-0.047137663 0.10114677 -0.004584356 0.06483045 -0.121219456 -0.08875355 -0.053437255 -0.09977253
0.27775294 -0.12664893 0.0079886615 0.08936489 -0.11879108 0.06588187 0.061612934 0.10076484
-0.09409092 0.029669888 0.021820813 0.03819711 -0.07736759 -0.01708958 0.11501077 0.11076417
-0.049922165 0.02595964 0.116442345 -0.041338116 -0.04221888 -0.059200387 -0.05259325 0.036292296
-0.03305889 0.019262448 0.07397212 0.08685944 -0.027442083 0.11525713 0.35601252 -0.100029215
-0.045090303 -0.050451774 -0.030485112 -0.012472405 -0.07888761 0.03134715 -0.05449027 0.07365759
-0.034573033 -0.18902011 0.03444815 -0.04485421 0.10910346 -0.16580884 0.05181144 0.07348193
-0.02732809 -0.07671644 0.120680824 0.1178398 0.04987906 0.074254036 0.0044083446 -0.044827744
-0.04932542 0.101349935 0.2585567 0.111789316 0.052241996 0.015808022 -0.102527164 -0.0015211999
0.2234915 -0.034494165 0.09178379 0.08904345 0.09212333 -0.016237931 -0.015887365 0.045442138
-0.10891484 0.08502488 -0.12262809 -0.08131181 0.0054510236 0.10649852 -0.034801826 -0.077736005
0.123809695 -0.015935794 -0.08375531 -0.025316967 0.050660536 -0.06610294 0.13519682 -0.13188878
0.11697763 -0.1179916 0.066881955 -0.0102254655 -0.05492808 -0.007662922 0.11027956 -0.055365212
0.076023676 -0.10015378 0.061847314 0.052085835 -0.09366862 0.046769336 -0.071291 0.11063716
-0.064701684 -0.016647283 -0.054085184 7.9820005e-05 -0.07315007 0.033654995 0.050389 0.039021075
0.038094215 -0.07885484 -0.09411374 0.09968585 -0.094734296 0.001015635 -0.05292888 0.03531429
-0.08813876 -0.027691005 0.11465723 0.04093282 0.11202512 -0.111185975 0.09228177 -0.10583508
00000000: 00e8 42bb b82c 513d c4c8 ad3d 42ee 91bd
00000010: 7cc0 64bd ba6f b03d e012 dfbb eac5 ad3d
00000020: 1076 aa3d 34fa dfbd a63d e43d 8035 09bd
00000030: 6806 70bd 1856 07bd 76c9 eb3d 7835 f5bd
00000040: d8fa 8fbc d0c0 a1bd 2836 e73d 44c5 e0bd
00000050: 4ec9 ff3d de5c e23d c8c6 15bd aec5 a8bd
00000060: 207d 29bd b09a 193d 1c38 3cbd 8a10 b8bd
00000070: 76a0 f03d 6679 97bd 5ca7 613d 00e5 c7bd
00000080: 6853 76bd 1091 ebbd 88e8 ed3d 00a3 31bb
00000090: feed b93d 88b1 1cbd 1c11 193d f436 ee3d
000000a0: f441 1dbd 78f5 c9bc c297 d43d 5ebd e5bd
000000b0: 9820 e83c d4ee 4f3d a881 79bd ce31 b4bd
000000c0: f6d6 8b3d 8061 db3c b8c7 f2bc 86a1 c9bd
000000d0: 8a7f c13d 4e9b fdbd 849c 3a3d eefb 973d
000000e0: 4067 043b 107d ce3c e4d3 d83d 4ccd adbd
000000f0: 4cd5 b4bd 0887 c93c 0c7d 4f3d a051 143c
00000100: 90b2 553a d529 92bd 04e6 dabd c4de 88bd
00000110: 822a 973d 4599 16be f82d a13c d299 783d
00000120: 7cf7 193d 0d6f 6f3d 0c9e 4a3d bded 863d
00000130: 1c22 c2bd efe0 00be 9889 5abd b54b 69bd
00000140: 7537 3ebd 905c e13d 0c85 b6bd 33f5 aa3d
00000150: 9669 89bd ab34 bd3c db96 c0bc 39b9 a1bd
00000160: cd36 d93d 7e7c d03d ac7c 973d d3f0 4bbd
00000170: a07e 27bd 984f e93d 5b10 43bd 8e44 24bd
00000180: 11c1 a23d b64b e23d e070 27be 3cd3 76bd
00000190: 4872 143c 2c8c c73d d87d a3bd 68ec b03c
000001a0: 7e46 fcbd 1bb7 9a3c aa3b 923d 9698 083e
000001b0: 4e18 83bd 851b 5abd a4f1 e4bc 4a1b ea3d
000001c0: 1ac6 f5bd ff69 bc3d 84fb f1bd a066 443c
000001d0: 88a0 a03c 7044 b5bc c00e 1e3c 3e64 8bbd
000001e0: 6c13 41bd 0a26 cf3d 5e38 96bb d4c5 843d
000001f0: e841 f8bd 6cc4 b5bd 06e1 5abd 8a55 ccbd
00000200: a235 8e3e 42b0 01be e0e2 023c f004 b73d
00000210: bd48 f3bd 13ed 863d d85d 7c3d cc5d ce3d
00000220: beb2 c0bd 440e f33c 90c1 b23c 9374 1c3d
00000230: e672 9ebd 72ff 8bbc c48a eb3d 53d8 e23d
00000240: 2f7b 4cbd 50a9 d43c 5379 ee3d 2852 29bd
00000250: b4ed 2cbd 1b7c 72bd 056c 57bd 3ba7 143d
00000260: c268 07bd 48cc 9d3c b27e 973d 5de3 b13d
00000270: 38ce e0bc ee0b ec3d 4647 b63e 1edc ccbd
00000280: 9cb0 38bd 85a6 4ebd eabb f9bc 0f59 4cbc
00000290: d48f a1bd df65 003d 3031 5fbd cad9 963d
000002a0: 749c 0dbd 7d8e 41be 8119 0d3d 0cb9 37bd
000002b0: a371 df3d cbc9 29be 3c38 543d b27d 963d
000002c0: 29df dfbc 821d 9dbd 8227 f73d fe55 f13d
000002d0: fc4d 4c3d 8012 983d e073 903b 4c9d 37bd
000002e0: 7409 4abd 8e90 cf3d 8b61 843e ccf1 e43d
000002f0: b4fb 553d d37f 813c c3f9 d1bd 0063 c7ba
00000300: f5da 643e c149 0dbd 24f9 bb3d 6a5c b63d
00000310: 28ab bc3d 6905 85bc 3826 82bc 8921 3a3d
00000320: be0e dfbd 8621 ae3d 7024 fbbd ce86 a6bd
00000330: 809e b23b e51b da3d 5c8c 0ebd 0e34 9fbd
00000340: f08f fd3d c88b 82bc e787 abbd 8765 cfbc
00000350: 6c81 4f3d fa60 87bd 0971 0a3e da0d 07be
00000360: f891 ef3d 94a5 f1bd 68f9 883d b688 27bc
00000370: 44fc 60bd 4019 fbbb 40da e13d a2c6 62bd
00000380: 4db2 9b3d 6d1d cdbd 9c53 7d3d f557 553d
00000390: 55d5 bfbd 3491 3f3d 0401 92bd bc95 e23d
000003a0: 5182 84bd e25f 88bc 6d88 5dbd 0a65 a738
000003b0: b4cf 95bd d2d9 093d b264 4e3d 90d4 1f3d
000003c0: ae08 1c3d a57e a1bd b4be c0bd 1828 cc3d
000003d0: 0e04 c2bd 0e1f 853a f4cb 58bd b8a5 103d
000003e0: 1882 b4bd 3fd8 e2bc 69d1 ea3d 2ca9 273d
000003f0: 6d6d e53d 79b5 e3bd 3afe bc3d 10c0 d8bd

net.2.bias f4 [64]
0.078017905 -0.09931932 0.108647734 -0.0728801 -0.09633501 0.06212001 0.046714358 -0.03102453
0.0459925 0.06566235 -0.07025509 -0.013206884 -0.022608131 -0.061305895 -0.063624516 0.039870918
0.047813848 -0.075192526 0.066847175 0.021229235 -0.0047693346 0.020075358 0.11613523 0.08234582
0.037881814 0.08035767 0.011182502 0.05126248 0.11542884 -0.08546865 -0.06804314 0.014441326
-0.099884026 -0.017791107 -0.05424456 0.10612147 0.0141129475 -0.07123594 0.094108485 0.04097791
0.048013557 0.05408561 -0.0064017214 -0.12664756 0.04412456 0.038669586 -0.10502403 0.0046752244
-0.024025131 -0.0026514318 0.09464586 -0.07440147 -0.0024439243 -0.08311891 0.03708977 0.07165622
-0.011265665 -0.0079945475 0.03822361 -0.08591338 0.041709304 0.029515337 0.09748049 0.03437957
00000000: dac7 9f3d ed67 cbbd b482 de3d 2942 95bd
00000010: 4a4b c5bd 8d71 7e3d 8e57 3f3d 2827 febc
00000020: a262 3c3d fb79 863d e7e1 8fbd b061 58bc
00000030: b034 b9bc e41b 7bbd 924d 82bd b04f 233d
00000040: 74d8 433d 8afe 99bd 2ce7 883d efe8 ad3c
00000050: 1448 9cbb 1475 a43c 4fd8 ed3d eda4 a83d
00000060: f629 1b3d 9092 a43d d036 373c 9bf8 513d
00000070: f565 ec3d 300a afbd 345a 8bbd 509b 6c3c
00000080: ff8f ccbd a8be 91bc 8b2f 5ebd 3756 d93d
00000090: fe39 673c 26e4 91bd f3bb c03d 74d8 273d
000000a0: dda9 443d df88 5d3d 88c5 d1bb e6af 01be
000000b0: f4bb 343d 0064 1e3d d716 d7bd a032 993b
000000c0: 5ad0 c4bc a5c3 2dbb b0d5 c13d cc5f 98bd
000000d0: 3f2a 20bb 3f3a aabd 71eb 173d 7fc0 923d
000000e0: a093 38bc 90fb 02bc 5c90 1c3d 5bf3 afbd
000000f0: 60d7 2a3d 26ca f13c daa3 c73d 98d1 0c3d

net.4.weight f4 [1, 64]
0.06436175 0.005421398 -0.0024878301 -0.0015282802 -0.0029288707 -0.0952399 -0.024312796 0.023036957
0.06872125 0.04117596 -0.009981875 -0.0014147599 -0.02362077 -0.046337087 0.008247554 -0.072868556
-0.06356183 0.110567555 -0.07885345 -0.030067878 -0.011959194 -0.08401869 0.07804302 -0.07447663
-0.09559163 0.036072284 0.013856202 -0.08108055 -0.04354116 -0.004691134 0.12401888 -0.12319678
-0.05218177 0.0021641783 -0.096612155 0.09269231 0.0046471395 0.026293557 -0.021161184 -0.031939417
0.0343582 0.044196773 -0.053436548 -0.019756395 -0.11274499 0.061296403 0.0981455 -0.0913478
-0.000254815 -0.10110269 0.09104106 -0.10844433 -0.06316079 -0.0802422 0.036228642 0.038542636
-0.10997303 0.069327146 0.06966695 -0.05611438 -0.009180114 -0.078886144 -0.10622621 -0.011989191
00000000: 18d0 833d fca5 b13b dd0a 23bb 9350 c8ba
00000010: 4cf2 3fbb 230d c3bd a12b c7bc 00b8 bc3c
00000020: babd 8c3d 20a8 283d 058b 23bc 776f b9ba
00000030: 5880 c1bc f5cb 3dbd c020 073c 1c3c 95bd
00000040: b42c 82bd 3e71 e23d eb7d a1bd e950 f6bc
00000050: 7ff0 43bc fe11 acbd 05d5 9f3d 3487 98bd
00000060: 8bc5 c3bd 88c0 133d 2005 633c 8f0d a6bd
00000070: 3758 32bd 16b8 99bb 9cfd fd3d 984e fcbd
00000080: 8dbc 55bd e3d4 0d3b 98dc c5bd 77d5 bd3d
00000090: 0847 983b 9665 d73c 385a adbc e8d2 02bd
000000a0: 2fbb 0c3d ad07 353d 48e0 5abd 2ad8 a1bc
000000b0: d8e6 e6bd f011 7b3d 8200 c93d 8e14 bbbd
000000c0: b198 85b9 ed0e cfbd bc73 ba3d 1018 debd
000000d0: 725a 81bd 0656 a4bd 7c64 143d e2de 1d3d
000000e0: 8a39 e1bd 64fb 8d3d 8cad 8e3d 31d8 65bd
000000f0: 3068 16bc 0f8f a1bd 218d d9bd 506e 44bc

exp_avg f4 [64, 1]
1.6711774e-05 -1.7097609e-06 0.0 6e-45 2.4339863e-08 3.184135e-05 0.0 -4.7674416e-06
0.0 -9.744674e-07 0.0 -5.3369706e-07 0.0 -2.8821291e-06 0.0 5.843053e-07
-7.0484066e-07 0.0 2.040893e-06 -2.2915729e-06 0.0 3.6552115e-06 -2.791684e-06 -8.2390525e-06
2.2765353e-06 0.0 0.0 3.277908e-06 0.0 0.0 -1.3263025e-06 -5.4960947e-07
-5.065903e-07 -6.263183e-06 -3.7271384e-06 -3.833333e-07 -1.9140887e-06 1.5284645e-06 0.0 0.0
4.5627344e-06 -6.604826e-06 2.3117175e-06 -1.7056757e-06 3.1771305e-07 -5.118022e-06 -3.2727992e-06 -3.2359794e-06
-4.414602e-06 2.0278367e-06 0.0 0.0 0.0 2.1369613e-07 0.0 0.0
0.0 -5.966563e-06 2.434475e-06 -1.4222878e-06 2.9149826e-06 1.4760676e-06 -4.416681e-06 0.0
00000000: 4330 8c37 f07a e5b5 0000 0000 0400 0000
00000010: ed13 d132 648d 0538 0000 0000 03f8 9fb6
00000020: 0000 0000 72ca 82b5 0000 0000 6243 0fb5
00000030: 0000 0000 9a6a 41b6 0000 0000 28d9 1c35
00000040: 4834 3db5 0000 0000 46f6 0836 ecc8 19b6
00000050: 0000 0000 0e4c 7536 c458 3bb6 763a 0ab7
00000060: 94c6 1836 0000 0000 0000 0000 08fa 5b36
00000070: 0000 0000 0000 0000 6803 b2b5 e088 13b5
00000080: 9ffc 07b5 5528 d2b6 c01f 7ab6 edcc cdb4
00000090: cb73 00b6 a425 cd35 0000 0000 0000 0000
000000a0: 9719 9936 069f ddb6 0123 1b36 92ee e4b5
000000b0: 2692 aa34 79bb abb6 43a2 5bb6 b429 59b6
000000c0: 2421 94b6 f815 0836 0000 0000 0000 0000
000000d0: 0000 0000 5874 6534 0000 0000 0000 0000
000000e0: 0000 0000 6334 c8b6 f65f 2336 70e5 beb5
000000f0: 059f 4336 4c1d c635 0033 94b6 0000 0000

exp_avg_sq f4 [64, 1]
8.445456e-09 4.330476e-08 0.0 3.436668e-15 7.352027e-10 2.8165485e-07 0.0 3.8737706e-09
0.0 5.352058e-10 0.0 3.3102336e-09 0.0 1.1488497e-08 0.0 1.4516464e-10
8.165639e-10 0.0 1.99065e-09 1.0441401e-08 0.0 1.5974944e-08 2.506492e-08 3.185099e-07
4.3335122e-10 0.0 0.0 3.921558e-08 0.0 0.0 4.1005435e-09 1.3855347e-08
1.9034437e-10 2.0861664e-08 1.0219247e-07 3.3501057e-09 3.062834e-10 2.1040211e-08 0.0 0.0
6.718119e-09 4.7426298e-07 2.985994e-08 4.019005e-09 2.9181308e-09 2.2675066e-07 4.893877e-08 2.3069259e-08
3.3621752e-09 4.6556323e-09 0.0 0.0 0.0 9.793965e-09 0.0 0.0
0.0 9.4849916e-08 4.242965e-09 2.6847589e-09 9.598282e-10 1.6145862e-10 1.5936449e-08 0.0
00000000: 8217 1132 16fe 3933 0000 0000 56a3 7727
00000010: 4a17 4a30 5936 9734 0000 0000 0c1a 8531
00000020: 0000 0000 c31d 1330 0000 0000 3f7a 6331
00000030: 0000 0000 f25e 4532 0000 0000 379c 1f2f
00000040: 9474 6030 0000 0000 e3cb 0831 c461 3332
00000050: 0000 0000 4639 8932 584e d732 abff aa34
00000060: c33c ee2f 0000 0000 0000 0000 fc6d 2833
00000070: 0000 0000 0000 0000 c3e4 8c31 7608 6e32
00000080: 2d49 512f 4933 b332 e874 db33 af37 6631
00000090: 8e61 a82f eabb b432 0000 0000 0000 0000
000000a0: 33d5 e631 359e fe34 5a3f 0033 8b17 8a31
000000b0: 4d88 4831 bf78 7334 bf30 5233 d629 c632
000000c0: 030c 6731 60f7 9f31 0000 0000 0000 0000
000000d0: 0000 0000 5042 2832 0000 0000 0000 0000
000000e0: 0000 0000 4bb0 cb33 84c9 9131 c77e 3831
000000f0: f4ea 8330 9086 312f 9fe4 8832 0000 0000

exp_avg f4 [64]
1.5873316e-05 -1.6126376e-06 0.0 6e-45 1.0468725e-06 3.871888e-05 0.0 -6.9493813e-06
0.0 1.11592946e-07 0.0 -1.5162074e-06 0.0 -4.9067717e-06 0.0 9.0028163e-07
-1.193659e-06 0.0 1.9729953e-06 -2.1980893e-06 0.0 4.7111844e-06 -2.5178565e-06 -8.030406e-06
3.3789388e-06 0.0 0.0 2.9859252e-06 0.0 0.0 -1.213455e-06 -1.0648763e-06
-8.8120125e-08 -7.1808545e-06 -6.957386e-06 -9.12444e-07 -2.774524e-06 1.4526757e-06 0.0 0.0
6.0950433e-06 -4.6445257e-06 3.509016e-06 -2.3101898e-06 5.078639e-07 -4.323588e-06 -4.173125e-06 -3.4398645e-06
-5.4730303e-06 2.958687e-06 0.0 0.0 0.0 -2.7712605e-07 0.0 0.0
0.0 -6.015731e-06 2.247837e-06 -2.3720124e-06 6.4486603e-06 2.9602986e-06 -5.1169955e-06 0.0
00000000: b027 8537 ce71 d8b5 0000 0000 0400 0000
00000010: 4482 8c35 1566 2238 0000 0000 bb2e e9b6
00000020: 0000 0000 dfa4 ef33 0000 0000 7d80 cbb5
00000030: 0000 0000 d9a4 a4b6 0000 0000 e2aa 7135
00000040: d035 a0b5 0000 0000 cd67 0436 e382 13b6
00000050: 0000 0000 c414 9e36 72f8 28b6 55ba 06b7
00000060: bac1 6236 0000 0000 0000 0000 ce61 4836
00000070: 0000 0000 0000 0000 ffdd a2b5 dfec 8eb5
00000080: 8d3c bdb3 12f3 f0b6 7e73 e9b6 adee 74b5
00000090: f631 3ab6 8ff9 c235 0000 0000 0000 0000
000000a0: 0684 cc36 2cd8 9bb6 707c 6b36 c208 1bb6
000000b0: 2454 0835 5713 91b6 df06 8cb6 6cd8 66b6
000000c0: f9a4 b7b6 db8d 4636 0000 0000 0000 0000
000000d0: 0000 0000 eac7 94b4 0000 0000 0000 0000
000000e0: 0000 0000 bcda c9b6 8cd9 1636 dd2e 1fb6
000000f0: 9261 d836 8ba9 4636 a8b2 abb6 0000 0000

exp_avg_sq f4 [64]
7.0296413e-09 6.950223e-08 0.0 1.8112565e-15 1.1718918e-09 3.343916e-07 0.0 4.5798894e-09
0.0 1.2719722e-09 0.0 6.385256e-09 0.0 1.5681032e-08 0.0 3.7058617e-10
1.2901215e-09 0.0 2.6473108e-09 1.575342e-08 0.0 2.3328019e-08 3.9339568e-08 5.3024644e-07
7.9668155e-10 0.0 0.0 6.19327e-08 0.0 0.0 3.1806575e-09 2.1370994e-08
3.7845385e-10 3.0357597e-08 1.3659866e-07 4.611726e-09 5.6446214e-10 3.296179e-08 0.0 0.0
8.430655e-09 7.8244267e-07 4.4394298e-08 6.0687984e-09 4.6815836e-09 3.7963588e-07 7.5618146e-08 3.501013e-08
4.20142e-09 8.339215e-09 0.0 0.0 0.0 1.6550944e-08 0.0 0.0
0.0 1.4799659e-07 3.4992318e-09 4.3655053e-09 4.069363e-09 4.591821e-10 2.4163242e-08 0.0
00000000: 6189 f131 4141 9533 0000 0000 c983 0227
00000010: 4710 a130 6e86 b334 0000 0000 225d 9d31
00000020: 0000 0000 8bd1 ae30 0000 0000 4e65 db31
00000030: 0000 0000 f4b2 8632 0000 0000 5ebb cb2f
00000040: 1d50 b130 0000 0000 fceb 3531 2352 8732
00000050: 0000 0000 db62 c832 50f6 2833 4256 0e35
00000060: 7bfd 5a30 0000 0000 0000 0000 ddff 8433
00000070: 0000 0000 0000 0000 b892 5a31 5093 b732
00000080: a50e d02f 8862 0233 f4ab 1234 2c75 9e31
00000090: 7e28 1b30 df91 0d33 0000 0000 0000 0000
000000a0: 6ad6 1032 0d09 5235 0cac 3e33 b785 d031
000000b0: a5db a031 c2d0 cb34 8463 a233 0c5e 1633
000000c0: 155c 9031 4144 0f32 0000 0000 0000 0000
000000d0: 0000 0000 e92b 8e32 0000 0000 0000 0000
000000e0: 0000 0000 fee8 1e34 2377 7031 64ff 9531
000000f0: 7fd2 8b31 2370 fc2f 888f cf32 0000 0000

exp_avg f4 [64, 64]
0.0 0.0 0.0 0.0 0.0 0.0 0.0 0.0
0.0 0.0 0.0 0.0 0.0 0.0 0.0 0.0
0.0 0.0 0.0 0.0 0.0 0.0 0.0 0.0
0.0 0.0 0.0 0.0 0.0 0.0 0.0 0.0
0.0 0.0 0.0 0.0 0.0 0.0 0.0 0.0
0.0 0.0 0.0 0.0 0.0 0.0 0.0 0.0
0.0 0.0 0.0 0.0 0.0 0.0 0.0 0.0
0.0 0.0 0.0 0.0 0.0 0.0 0.0 0.0
6e-45 -1.1679427e-06 0.0 0.0 -4.0047433e-07 -4.919602e-08 0.0 -2.8663032e-07
0.0 -1.2678861e-06 0.0 -7.924753e-07 0.0 -1.2246909e-06 0.0 -1.3151073e-07
-8.865831e-07 0.0 -2.80026e-07 -1.341789e-06 0.0 -1.0859243e-06 -4.1374807e-07 -6.883883e-08
-7.862086e-07 0.0 0.0 -7.608419e-07 0.0 0.0 6e-45 -1.2178549e-06
-1.4577709e-08 -2.0476539e-07 -3.4907302e-07 -2.8774323e-07 -6.9513607e-07 -7.356977e-07 0.0 0.0
-1.1776933e-07 -5.922788e-08 -2.9848655e-07 -3.8662574e-08 -7.133872e-07 -4.594874e-08 -1.6735947e-06 -7.4679684e-07
-9.308808e-07 -1.525575e-06 0.0 0.0 0.0 -1.0445284e-06 0.0 0.0
0.0 -1.096428e-06 6e-45 -1.2316881e-06 -2.9020221e-08 -4.542828e-07 -8.6961103e-07 0.0
1.8637822e-09 -6.872965e-07 0.0 -6e-45 -2.512325e-07 -3.5947145e-09 0.0 -1.2360172e-07
0.0 -7.521208e-07 0.0 -5.331671e-07 0.0 -6.489987e-07 0.0 -2.1936541e-08
-4.122659e-07 0.0 -2.0647377e-09 -7.951955e-07 0.0 -6.1420775e-07 -3.6425757e-07 -1.7043799e-07
-3.9738438e-07 0.0 0.0 -4.4168604e-07 0.0 0.0 1.5994539e-10 -6.264385e-07
-5.9129297e-09 -1.8944557e-07 -5.9637735e-09 -1.2422119e-07 -3.3328226e-07 -5.080234e-07 0.0 0.0
-7.153451e-08 -1.4737408e-07 -2.7475718e-07 -4.691829e-08 -4.3636544e-07 -1.1558828e-07 -9.4653313e-07 -3.9560618e-07
-5.038467e-07 -7.9825924e-07 0.0 0.0 0.0 -6.2945804e-07 0.0 0.0
0.0 -6.1963976e-07 7.7372386e-10 -6.676589e-07 4.536242e-35 -3.1611006e-07 -3.8958063e-07 0.0
1.2414514e-09 -6.7919325e-07 0.0 -6e-45 -2.5617823e-07 2.4711047e-09 0.0 -9.8275585e-08
0.0 -7.4621505e-07 0.0 -5.6202566e-07 0.0 -6.0233106e-07 0.0 5.1880183e-10
-3.477464e-07 0.0 1.7408613e-08 -7.88889e-07 0.0 -5.920059e-07 -4.2618018e-07 -2.55617e-07
-3.561668e-07 0.0 0.0 -4.3180702e-07 0.0 0.0 1.1628784e-10 -5.700235e-07
-3.907208e-09 -2.2539943e-07 2.0343757e-08 -9.9061765e-08 -2.8659787e-07 -5.413927e-07 0.0 0.0
-7.0995235e-08 -2.2097966e-07 -3.2428864e-07 -6.0300856e-08 -4.3900116e-07 -1.7322628e-07 -9.142259e-07 -3.6745186e-07
-4.7433306e-07 -7.3478e-07 0.0 0.0 0.0 -6.284073e-07 0.0 0.0
0.0 -5.985113e-07 5.5332294e-10 -6.2688173e-07 6e-45 -3.388999e-07 -3.1889832e-07 0.0
00000000: 0000 0000 0000 0000 0000 0000 0000 0000
00000010: 0000 0000 0000 0000 0000 0000 0000 0000
00000020: 0000 0000 0000 0000 0000 0000 0000 0000
00000030: 0000 0000 0000 0000 0000 0000 0000 0000
00000040: 0000 0000 0000 0000 0000 0000 0000 0000
00000050: 0000 0000 0000 0000 0000 0000 0000 0000
00000060: 0000 0000 0000 0000 0000 0000 0000 0000
00000070: 0000 0000 0000 0000 0000 0000 0000 0000
00000080: 0000 0000 0000 0000 0000 0000 0000 0000
00000090: 0000 0000 0000 0000 0000 0000 0000 0000
000000a0: 0000 0000 0000 0000 0000 0000 0000 0000
000000b0: 0000 0000 0000 0000 0000 0000 0000 0000
000000c0: 0000 0000 0000 0000 0000 0000 0000 0000
000000d0: 0000 0000 0000 0000 0000 0000 0000 0000
000000e0: 0000 0000 0000 0000 0000 0000 0000 0000
000000f0: 0000 0000 0000 0000 0000 0000 0000 0000
00000100: 0400 0000 35c2 9cb5 0000 0000 0000 0000
00000110: c600 d7b4 994b 53b3 0000 0000 2ce2 99b4
00000120: 0000 0000 3c2c aab5 0000 0000 7dba 54b5
00000130: 0000 0000 0f60 a4b5 0000 0000 6535 0db4
00000140: 87fd 6db5 0000 0000 7b56 96b4 8517 b4b5
00000150: 0000 0000 13c0 91b5 1a21 deb4 8cd4 93b3
00000160: d80b 53b5 0000 0000 0000 0000 a83c 4cb5
00000170: 0000 0000 0000 0000 0400 0000 2d75 a3b5
00000180: 7171 7ab2 7bdd 5bb4 3b68 bbb4 217b 9ab4
00000190: 6399 3ab5 c37c 45b5 0000 0000 0000 0000
000001a0: 60e8 fcb3 be61 7eb3 ae3f a0b4 f30d 26b3
000001b0: 987f 3fb5 2d59 45b3 47a0 e0b5 7d77 48b5
000001c0: a4e1 79b5 5cc2 ccb5 0000 0000 0000 0000
000001d0: 0000 0000 b931 8cb5 0000 0000 0000 0000
000001e0: 0000 0000 fb28 93b5 0400 0000 7b50 a5b5
000001f0: 2448 f9b2 27e4 f3b4 376f 69b5 0000 0000
00000200: 0114 0031 a87e 38b5 0000 0000 0400 0080
00000210: 22e1 86b4 e306 77b1 0000 0000 62b7 04b4
00000220: 0000 0000 59e5 49b5 0000 0000 f71e 0fb5
00000230: 0000 0000 da36 2eb5 0000 0000 f76e bcb2
00000240: 6555 ddb4 0000 0000 40e3 0db1 6b75 55b5
00000250: 0000 0000 09e0 24b5 2e8f c3b4 a301 37b4
00000260: 1858 d5b4 0000 0000 0000 0000 de20 edb4
00000270: 0000 0000 0000 0000 a0dc 2f2f 8728 28b5
00000280: ae2a cbb1 676a 4bb4 e8e9 ccb1 a961 05b4
00000290: f7ed b2b4 1a5f 08b5 0000 0000 0000 0000
000002a0: 839e 99b3 e13d 1eb4 5782 93b4 3583 49b3
000002b0: 9c45 eab4 5439 f8b3 4315 7eb5 b363 d4b4
000002c0: 1540 07b5 f547 56b5 0000 0000 0000 0000
000002d0: 0000 0000 07f8 28b5 0000 0000 0000 0000
000002e0: 0000 0000 5255 26b5 faad 5430 2c39 33b5
000002f0: 2030 7106 d6b5 a9b4 8e27 d1b4 0000 0000
00000300: b09f aa30 ce51 36b5 0000 0000 0400 0080
00000310: de88 89b4 22d0 2931 0000 0000 930b d3b3
00000320: 0000 0000 824f 48b5 0000 0000 1cde 16b5
00000330: 0000 0000 e0af 21b5 0000 0000 6f9b 0e30
00000340: e7b1 bab4 0000 0000 f289 9532 0ac4 53b5
00000350: 0000 0000 56ea 1eb5 c2cd e4b4 bc3b 89b4
00000360: 3137 bfb4 0000 0000 0000 0000 1bd3 e7b4
00000370: 0000 0000 0000 0000 3cb8 ff2e b703 19b5
00000380: 2a40 86b1 5305 72b4 65c0 ae32 c8bb d4b3
00000390: b6dd 99b4 3954 11b5 0000 0000 0000 0000
000003a0: 0b76 98b3 6d46 6db4 e419 aeb4 bf7e 81b3
000003b0: dcaf ebb4 1400 3ab4 2069 75b5 3346 c5b4
000003c0: d7a7 feb4 b23d 45b5 0000 0000 0000 0000
000003d0: 0000 0000 d2af 28b5 0000 0000 0000 0000
000003e0: 0000 0000 62a9 20b5 a418 1830 fc46 28b5
000003f0: 0400 0000 0cf2 b5b4 0d35 abb4 0000 0000

exp_avg_sq f4 [64, 64]
0.0 0.0 0.0 0.0 0.0 0.0 0.0 0.0
0.0 0.0 0.0 0.0 0.0 0.0 0.0 0.0
0.0 0.0 0.0 0.0 0.0 0.0 0.0 0.0
0.0 0.0 0.0 0.0 0.0 0.0 0.0 0.0
0.0 0.0 0.0 0.0 0.0 0.0 0.0 0.0
0.0 0.0 0.0 0.0 0.0 0.0 0.0 0.0
0.0 0.0 0.0 0.0 0.0 0.0 0.0 0.0
0.0 0.0 0.0 0.0 0.0 0.0 0.0 0.0
2.8718263e-16 3.3574323e-09 0.0 0.0 5.0942334e-10 9.537528e-12 0.0 2.1455082e-10
0.0 4.509797e-09 0.0 1.8681228e-09 0.0 3.4210137e-09 0.0 8.866551e-11
1.876445e-09 0.0 4.5368882e-11 4.5776836e-09 0.0 2.8630671e-09 7.4805384e-10 1.6835643e-10
1.49631e-09 0.0 0.0 1.4506635e-09 0.0 0.0 1.7065125e-16 3.315737e-09
2.325872e-11 2.1088606e-10 6.201922e-11 2.227089e-10 1.3839705e-09 1.6274997e-09 0.0 0.0
5.7368298e-11 1.1022219e-10 4.1040044e-10 2.0824278e-11 1.3978576e-09 8.2357225e-11 6.6384342e-09 1.286402e-09
2.2089632e-09 5.352672e-09 0.0 0.0 0.0 2.864145e-09 0.0 0.0
0.0 2.8309222e-09 5.1520563e-15 3.6940675e-09 5.2722654e-14 8.1012014e-10 1.5449041e-09 0.0
3.9350923e-15 1.0248654e-09 0.0 1.2739038e-19 1.5380235e-10 2.1091588e-12 0.0 7.2849275e-11
0.0 1.394263e-09 0.0 5.3634225e-10 0.0 1.0964486e-09 0.0 3.2271914e-11
6.321263e-10 0.0 1.8595351e-11 1.3930578e-09 0.0 8.9274893e-10 1.8434657e-10 2.7401808e-11
4.908229e-10 0.0 0.0 4.476134e-10 0.0 0.0 5.4230427e-16 1.0730321e-09
7.660614e-12 5.146985e-11 2.7788338e-11 7.6018414e-11 4.656439e-10 4.59081e-10 0.0 0.0
1.780958e-11 1.8163799e-11 9.867762e-11 5.1312175e-12 4.2247064e-10 1.3273476e-11 2.0642348e-09 4.115887e-10
7.044812e-10 1.7229429e-09 0.0 0.0 0.0 8.690822e-10 0.0 0.0
0.0 8.796977e-10 4.1656915e-15 1.1761733e-09 9.425025e-15 2.3735425e-10 5.242029e-10 0.0
1.1085796e-14 3.7745607e-09 0.0 1.5038211e-18 5.948793e-10 6.6283463e-12 0.0 2.865962e-10
0.0 5.3241336e-09 0.0 2.0010862e-09 0.0 4.0365196e-09 0.0 1.4492986e-10
2.3927953e-09 0.0 5.973257e-11 5.1955094e-09 0.0 3.303024e-09 6.857975e-10 8.258524e-11
1.8525037e-09 0.0 0.0 1.6633145e-09 0.0 0.0 2.4362578e-15 3.949353e-09
4.1496705e-11 1.9693466e-10 9.022804e-11 2.9971592e-10 1.8471409e-09 1.7051562e-09 0.0 0.0
7.4482996e-11 5.781961e-11 3.6175973e-10 2.2873984e-11 1.5916759e-09 4.0425028e-11 7.591428e-09 1.527507e-09
2.701334e-09 6.3897665e-09 0.0 0.0 0.0 3.2496719e-09 0.0 0.0
0.0 3.2308436e-09 1.3398773e-14 4.399218e-09 4.6817154e-14 9.415981e-10 1.9170199e-09 0.0
00000000: 0000 0000 0000 0000 0000 0000 0000 0000
00000010: 0000 0000 0000 0000 0000 0000 0000 0000
00000020: 0000 0000 0000 0000 0000 0000 0000 0000
00000030: 0000 0000 0000 0000 0000 0000 0000 0000
00000040: 0000 0000 0000 0000 0000 0000 0000 0000
00000050: 0000 0000 0000 0000 0000 0000 0000 0000
00000060: 0000 0000 0000 0000 0000 0000 0000 0000
00000070: 0000 0000 0000 0000 0000 0000 0000 0000
00000080: 0000 0000 0000 0000 0000 0000 0000 0000
00000090: 0000 0000 0000 0000 0000 0000 0000 0000
000000a0: 0000 0000 0000 0000 0000 0000 0000 0000
000000b0: 0000 0000 0000 0000 0000 0000 0000 0000
000000c0: 0000 0000 0000 0000 0000 0000 0000 0000
000000d0: 0000 0000 0000 0000 0000 0000 0000 0000
000000e0: 0000 0000 0000 0000 0000 0000 0000 0000
000000f0: 0000 0000 0000 0000 0000 0000 0000 0000
00000100: ad8c a525 93b8 6631 0000 0000 0000 0000
00000110: 7b07 0c30 35c9 272d 0000 0000 b0e6 6b2f
00000120: 0000 0000 98f4 9a31 0000 0000 5d60 0031
00000130: 0000 0000 1c17 6b31 0000 0000 3ffa c22e
00000140: c5f2 0031 0000 0000 d288 472e bb49 9d31
00000150: 0000 0000 9cbf 4431 9c9f 4d30 1f1c 392f
00000160: baa6 cd30 0000 0000 0000 0000 af60 c730
00000170: 0000 0000 0000 0000 5cbf 4425 10db 6331
00000180: fb95 cc2d 26df 672f b861 882e fcde 742f
00000190: 2236 be30 8eae df30 0000 0000 0000 0000
000001a0: f64e 7c2e 9461 f22e ba9e e12f 1b2c b72d
000001b0: be1e c030 ff1a b52e 4918 e431 3fcd b030
000001c0: 7ecc 1731 9aea b731 0000 0000 0000 0000
000001d0: 0000 0000 92d2 4431 0000 0000 0000 0000
000001e0: 0000 0000 1c8a 4231 559f b927 b9da 7d31
000001f0: 1571 6d29 23af 5e30 7b54 d430 0000 0000
00000200: d2c6 8d27 3fdb 8c30 0000 0000 6165 1620
00000210: 831b 292f 3a6b 142c 0000 0000 7f32 a02e
00000220: 0000 0000 45a0 bf30 0000 0000 bb6d 1330
00000230: 0000 0000 dbb1 9630 0000 0000 f2ee 0d2e
00000240: efc1 2d30 0000 0000 0291 a32d dd75 bf30
00000250: 0000 0000 9f65 7530 f2b0 4a2f 6307 f12d
00000260: 97ea 0630 0000 0000 0000 0000 fc13 f62f
00000270: 0000 0000 0000 0000 fe4e 1c26 f679 9330
00000280: 57c4 062d e65d 622e c66d f42d 902a a72e
00000290: 8efd ff2f e861 fc2f 0000 0000 0000 0000
000002a0: 9ca7 9c2d 3dc5 9f2d 90fe d82e e689 b42c
000002b0: 7541 e82f 6c82 692d 67da 0d31 f645 e22f
000002c0: 75a5 4130 aacc ec30 0000 0000 0000 0000
000002d0: 0000 0000 39e4 6e30 0000 0000 0000 0000
000002e0: 0000 0000 39cf 7130 b915 9627 eba6 a130
000002f0: 42c9 2928 a47c 822f 8017 1030 0000 0000
00000300: 36b4 4728 63b1 8131 0000 0000 c1ec dd21
00000310: e984 2330 d636 e92c 0000 0000 d48e 9d2f
00000320: 0000 0000 93ef b631 0000 0000 7b83 0931
00000330: 0000 0000 9ab1 8a31 0000 0000 215a 1f2f
00000340: 806e 2431 0000 0000 735a 832e 2f84 b231
00000350: 0000 0000 6afb 6231 b582 3c30 5b9b b52e
00000360: 2e9b fe30 0000 0000 0000 0000 ad9a e430
00000370: 0000 0000 0000 0000 068d 2f27 e0b2 8731
00000380: 2381 362e 2e88 582f df69 c62e 44c5 a42f
00000390: 7ede fd30 da5a ea30 0000 0000 0000 0000
000003a0: 33ca a32e 184b 7e2e 28e1 c62f a233 c92d
000003b0: 1ec2 da30 89ca 312e 746b 0232 60f0 d130
000003c0: 5fa2 3931 fb8c db31 0000 0000 0000 0000
000003d0: 0000 0000 d550 5f31 0000 0000 0000 0000
000003e0: 0000 0000 9a05 5e31 ef5e 7128 ee27 9731
000003f0: 81d8 5229 8a69 8130 92bc 0331 0000 0000

exp_avg f4 [64]
0.0 -1.2081402e-06 -7.4322907e-07 -7.510882e-07 -7.8366287e-07 6e-45 6e-45 0.0
-1.34018255e-05 3.825793e-06 -2.82572e-06 -4.753313e-07 0.0 6e-45 0.0 0.0
0.0 0.0 -2.005579e-05 -2.57799e-06 -9.636229e-07 6e-45 7.168672e-06 6e-45
-8.45804e-06 0.0 0.0 -7.1477116e-06 -8.974238e-06 6e-45 0.0 0.0
-1.1452284e-05 1.5043534e-07 -8.552852e-06 8.7550825e-06 -8.870746e-07 -9.1976983e-07 -4.9525424e-06 0.0
-7.0608507e-06 4.1191392e-06 -4.6657797e-06 -6.0792145e-06 0.0 0.0 6e-45 0.0
-3.55362e-09 -2.675697e-05 0.0 0.0 -1.2808798e-05 -7.077123e-06 3.393335e-06 6e-45
0.0 0.0 0.0 6e-45 0.0 -6.951744e-06 6e-45 0.0
00000000: 0000 0000 6227 a2b5 5082 47b5 639e 49b5
00000010: e75c 52b5 0400 0000 0400 0000 0000 0000
00000020: 67d8 60b7 505f 8036 80a1 3db6 0931 ffb4
00000030: 0000 0000 0400 0000 0000 0000 0000 0000
00000040: 0000 0000 0000 0000 7b3d a8b7 8801 2db6
00000050: d555 81b5 0400 0000 6c8a f036 0400 0000
00000060: 01e7 0db7 0000 0000 0000 0000 60d6 efb6
00000070: 0f90 16b7 0400 0000 0000 0000 0000 0000
00000080: 2f23 40b7 5a87 2134 387e 0fb7 cbe2 1237
00000090: 4d1f 6eb5 1ae6 76b5 042e a6b6 0000 0000
000000a0: 3fec ecb6 2337 8a36 be8e 9cb6 0efc cbb6
000000b0: 0000 0000 0000 0000 0400 0000 0000 0000
000000c0: f233 74b1 2874 e0b7 0000 0000 0000 0000
000000d0: 5ee5 56b7 0678 edb6 0db9 6336 0400 0000
000000e0: 0000 0000 0000 0000 0000 0000 0400 0000
000000f0: 0000 0000 0743 e9b6 0400 0000 0000 0000

exp_avg_sq f4 [64]
0.0 3.6934622e-09 1.1019845e-09 4.0375037e-09 6.5219163e-09 2.5896465e-09 2.5603967e-11 0.0
1.844706e-07 1.0825605e-07 1.6475262e-08 1.3034257e-09 0.0 3.8450523e-10 0.0 0.0
0.0 0.0 1.715271e-07 6.2891644e-08 9.923046e-09 1.7941761e-09 3.158537e-07 1.12261166e-10
4.5858528e-07 0.0 0.0 3.5359815e-07 9.936799e-08 2.988612e-13 0.0 0.0
1.5345185e-07 1.0836861e-09 4.5790026e-07 4.907013e-07 4.4218837e-09 1.761878e-08 2.6719114e-08 0.0
7.3148364e-08 1.06166816e-07 1.5727139e-07 2.9280875e-08 0.0 0.0 2.32195e-09 0.0
8.563171e-12 2.8741533e-07 0.0 0.0 2.0474285e-07 3.3624303e-07 8.341794e-08 3.8458997e-10
0.0 0.0 0.0 6.5532596e-10 0.0 2.9738885e-07 1.6900771e-09 0.0
00000000: 0000 0000 13d0 7d31 a274 9730 42ba 8a31
00000010: 6217 e031 8bf5 3131 0237 e12d 0000 0000
00000020: e412 4634 657a e833 7c85 8d32 3724 b330
00000030: 0000 0000 4d62 d32f 0000 0000 0000 0000
00000040: 0000 0000 0000 0000 032d 3834 0c0f 8733
00000050: 057a 2a32 f696 f630 9a92 a934 6bdd f62e
00000060: 7b33 f634 0000 0000 0000 0000 29d6 bd34
00000070: 2164 d533 703e a82a 0000 0000 0000 0000
00000080: 86c4 2434 d1f0 9430 55d5 f534 bdb8 0335
00000090: 4def 9731 1b58 9732 f483 e532 0000 0000
000000a0: bd15 9d33 d3fd e333 6ede 2834 5385 fb32
000000b0: 0000 0000 0000 0000 2d90 1f31 0000 0000
000000c0: 18a5 162d 104e 9a34 0000 0000 0000 0000
000000d0: 49d7 5b34 e484 b434 7f23 b333 3a6e d32f
000000e0: 0000 0000 0000 0000 0000 0000 7722 3430
000000f0: 0000 0000 d0a8 9f34 4d48 e830 0000 0000

exp_avg f4 [1, 64]
0.0 1.6941019e-06 1.8183166e-06 7.865439e-06 1.0887029e-06 -6e-45 -6e-45 0.0
-8.410531e-06 1.7731143e-05 3.1903348e-06 1.8725007e-06 0.0 -6e-45 0.0 0.0
0.0 0.0 1.0630216e-05 2.0905845e-05 3.5559e-05 -6e-45 2.1823253e-05 -6e-45
2.860687e-05 0.0 0.0 1.3721073e-05 2.6456504e-05 -6e-45 0.0 0.0
2.612762e-05 -4.6870887e-06 3.9377963e-05 -1.7372466e-06 3.7763032e-06 -6.3517773e-06 4.301346e-06 0.0
-1.976809e-06 2.5403731e-05 2.3551163e-05 1.9276779e-06 0.0 0.0 6e-45 0.0
-7.3164095e-08 1.0798089e-05 0.0 0.0 2.6915328e-05 1.3283116e-05 9.752297e-06 6e-45
0.0 0.0 0.0 -6e-45 0.0 3.6281657e-05 -6e-45 0.0
00000000: 0000 0000 e660 e335 e20c f435 cef5 0337
00000010: 8c1f 9235 0400 0080 0400 0080 0000 0000
00000020: f51a 0db7 57bd 9437 8919 5636 a252 fb35
00000030: 0000 0000 0400 0080 0000 0000 0000 0000
00000040: 0000 0000 0000 0000 6e58 3237 f65e af37
00000050: 2f25 1538 0400 0080 1411 b737 0400 0080
00000060: c9f8 ef37 0000 0000 0000 0000 8f33 6637
00000070: e9ee dd37 0400 0080 0000 0000 0000 0000
00000080: a32c db37 c945 9db6 c429 2538 572b e9b5
00000090: 656c 7d36 5a21 d5b6 4854 9036 0000 0000
000000a0: 52a9 04b6 191a d537 bd8f c537 415d 0136
000000b0: 0000 0000 0000 0000 0400 0000 0000 0000
000000c0: 631e 9db3 7029 3537 0000 0000 0000 0000
000000d0: 3ac8 e137 8cda 5e37 cc9d 2337 0400 0000
000000e0: 0000 0000 0000 0000 0000 0000 0400 0080
000000f0: 0000 0000 222d 1838 0400 0080 0000 0000

exp_avg_sq f4 [1, 64]
0.0 7.2394315e-08 1.326902e-07 4.727526e-07 1.4321066e-08 2.0188824e-09 2.2364413e-10 0.0
5.7176885e-07 1.5462927e-06 1.2823008e-07 5.7143698e-08 0.0 6.296634e-10 0.0 0.0
0.0 0.0 6.089321e-07 1.1865371e-06 4.5616753e-06 1.7765217e-09 4.02025e-06 1.5575273e-12
2.2577215e-06 0.0 0.0 1.0229953e-06 1.6812031e-06 6.825372e-09 0.0 0.0
1.6580815e-06 1.2534582e-07 3.1681727e-06 1.601732e-07 6.811403e-08 4.8554284e-07 1.7894176e-07 0.0
1.7644864e-07 5.847247e-06 1.8138794e-06 3.407144e-08 0.0 0.0 1.3569947e-09 0.0
1.5453498e-08 6.66283e-07 0.0 0.0 1.7288035e-06 1.2052249e-06 7.1924524e-07 3.0486436e-10
0.0 0.0 0.0 1.7076884e-09 0.0 7.700144e-06 1.2541115e-10 0.0
00000000: 0000 0000 3277 9b33 9b79 0e34 9fce fd34
00000010: b708 7632 8ebc 0a31 3ae6 752f 0000 0000
00000020: a87b 1935 368a cf35 9eaf 0934 296e 7533
00000030: 0000 0000 9f14 2d30 0000 0000 0000 0000
00000040: 0000 0000 0000 0000 7f75 2335 1b41 9f35
00000050: 7e10 9936 cd29 f430 afe5 8636 d633 db2b
00000060: 5c83 1736 0000 0000 0000 0000 da4d 8935
00000070: b3a5 e135 9b84 ea31 0000 0000 0000 0000
00000080: 3f8b de35 cc96 0634 cb9c 5436 13fc 2b34
00000090: 1646 9233 4056 0235 2323 4034 0000 0000
000000a0: d575 3d34 7833 c436 6c74 f335 f255 1233
000000b0: 0000 0000 0000 0000 0281 ba30 0000 0000
000000c0: 9abe 8432 9eda 3235 0000 0000 0000 0000
000000d0: 3c09 e835 36c3 a135 2812 4135 d899 a72f
000000e0: 0000 0000 0000 0000 0000 0000 f2b3 ea30
000000f0: 0000 0000 de2f 0137 1ae4 092f 0000 0000
